2-frontend/straattaal/artefacts/model.pth (torch, 110604 bytes, 15 tensors)

embedding.weight f4 [100, 32]
00000000: 26b1 50bf d6e0 0e40 2924 313f 11e2 d3bf
00000010: 68dc 89bf 5970 1e3e b3a4 813e 88a0 053f
00000020: 7b51 bebf 49aa eb3e cc1d b0bf 2634 c23f
00000030: 8f1e c7bf 842e 23be bbaa 20bf 6528 1240
00000040: 5c4d 903f cb5e 3cbf adec 6d3e 3c0a 97be
00000050: 570b 043f fe38 28bf 959e 1a3d c5ad 93bf
00000060: 6d1f 69bf 9d79 0e3f 530a 06c0 4be9 eabf
00000070: c2ac eabe 8327 e03e b864 153f 6e2c d3bf
00000080: 5555 be3f b175 babf 3c52 943f 5382 ca3f
00000090: 9280 bcbe 3ae0 8b3d 44ce a9bf 19a8 6d40
000000a0: aaf9 17c0 4d03 ce3f 898d 85be 80f5 0dbf
000000b0: 4f40 0640 8d6d f0bf 60b7 933f d276 26be
000000c0: 70ee 3a3e de83 c83f e313 9dbe 5e62 99bf
000000d0: b8d1 43bf 79a2 5f3f dbe2 f8be cf09 a0bf
000000e0: 5b0c d23f 2ef9 473f b7a1 28bf 97f2 b73e
000000f0: 8c0b 01c0 6c53 abbe c48e ba3e 528a b63f
00000100: 21f0 4a3f b692 39bf 92af 4ebf ef6f b8bf
00000110: 87fc a9bf 0a46 16bf 6156 993f 962a d5bf
00000120: 87c2 b5bf 7da9 01bf 176c 7cbf ac3f 9c3e
00000130: 2ca8 843d 4978 1b3f 1e59 d53e d4d7 333f
00000140: 652a 873f a814 1bbf 9730 78be 2360 1740
00000150: 16a7 6fbf b7f9 b33e 8bd1 d8bf 06fa a23e
00000160: 42b2 e6bf 5235 093f 55f0 30bf 6c3f 61c0
00000170: 1f5f 793f 3524 41bf d377 03c0 6338 84bf
00000180: f169 5bbf eb04 9ebf d184 b83e 5703 9fbf
00000190: a291 abbf 3e12 8dbe 93e0 32be da07 623e
000001a0: f27c a43f 9563 ebbe 4b37 313f 0515 733f
000001b0: 7afc 0abf bbf4 4fbc fa41 fb3e 7f2d b6be
000001c0: cb95 e23e 199d 1d3f 536b 62bf 9b1f 0abf
000001d0: 2ff1 c03f a1ed 9cbe bd4c 8abf e61d b13f
000001e0: 30b7 6c3f 8d09 febe 5d58 173f 4c6a 123f
000001f0: 1610 a23f 89df 753e 96b2 b13e f41f 70bf
00000200: e98e 883e 464e dc3f ff3c 903e 763f adbe
00000210: 4899 503f 757d a8bf bc8f adbf 28fe 083f
00000220: 4228 953f 5805 9abf af5a c7bf 2698 2fbf
00000230: 58bd aebf 5e76 c73f ab36 3b3f 0b59 a3bf
00000240: 8d9c 403f 0424 653e eef0 69c0 418a bbbf
00000250: 6c12 c53d 3508 ac3f 9b30 4fbf b43c 99be
00000260: fc43 6b3f cc51 2440 3848 6dbd 72eb 43be
00000270: 51f4 323f ff65 023f 967d 9dbe 6dc7 833f
00000280: 624f 783d b836 ec3f 9c48 edbf 9986 15c0
00000290: 695c 0ac0 5364 11c0 d47f 59bf 7a35 f8bf
000002a0: cddb 3440 1d85 8a3f 36fb 03c0 b9c2 d0bf
000002b0: aedf d13e 3cbe 09bf 3aad a63f 79a4 763f
000002c0: f4e7 1ebe 6b84 0ec0 7c61 0f40 0d21 e6bf
000002d0: ec09 713f a5ec f5bf 2a5e aa3f 7880 b73f
000002e0: 5e18 6fbf 2969 44bf 7a10 e1be ead9 5abc
000002f0: 5d66 c3bf cad3 dbbe f8f9 5fbe 0dc7 bebf
00000300: 699d e73f 78ac 9b3f bcc1 0740 28d8 3240
00000310: ce34 8bc0 690b 5040 ab2c 93c0 a917 8d40
00000320: 7edf 243f eb09 593f 2aa2 f3bd f6d5 efbf
00000330: d297 d73f 3426 90bf 100b 2240 f70c c63f
00000340: 86db a23f 67e6 b63f b5ac aabf d735 50bf
00000350: 2648 e73f 1d30 a440 12eb 38c0 d73d 82c0
00000360: 6d7c 92be fde5 40bf 2d25 2cc0 1252 2840
00000370: 3610 de3f c1f3 17c0 8009 13c0 cecf b8bf
00000380: f074 fa3f 4899 c0bf 508e f03e ce64 b340
00000390: da0e d73e 606d 983f e897 233f 4369 0bbf
000003a0: 10e2 dd3e 17a0 94c0 faa0 4f3f 5e0e 96c0
000003b0: 798b 683e d88b a2be 241b 8740 7295 3fbf
000003c0: b559 7abf a45f c73e 2f09 bfbf 66e5 ddbe
000003d0: 5361 b53e 9016 41c0 4a6b 48c0 6b23 7cbf
000003e0: 7712 0ec0 54b3 21c0 7837 31c0 36e4 563f
000003f0: b31f 5f3f 5a21 66c0 428d c3bf 90ec a53f
-0.8152031 2.232473 0.691958 -1.6553365 -1.0770388 0.15472545 0.25320968 0.52198076
-1.4868616 0.46028355 -1.3759093 1.5172164 -1.5556201 -0.15935713 -0.62760514 2.2837155
1.1273608 -0.7358214 0.23234816 -0.29499996 0.51579803 -0.65711963 0.03774889 -1.1537405
-0.91063577 0.5565432 -2.0943801 -1.8352445 -0.4583493 0.43780145 0.5835681 -1.6497934
1.4869791 -1.4567167 1.1587596 1.5821022 -0.3681684 0.06829877 -1.3266072 3.7133849
-2.3746133 1.6094757 -0.26084545 -0.5545273 2.097675 -1.8783432 1.1540337 -0.16256264
0.18255019 1.5665243 -0.30679235 -1.1983144 -0.7649188 0.8735729 -0.48610577 -1.2502993
1.641002 0.78114593 -0.6587176 0.3592727 -2.0163298 -0.33462083 0.36437047 1.4260962
0.7927266 -0.7248949 -0.8073665 -1.440916 -1.328019 -0.5870062 1.1979486 -1.6653621
-1.419999 -0.50649244 -0.9860243 0.30517328 0.06477389 0.60730416 0.41669554 0.702512
1.0559813 -0.60578394 -0.24237286 2.3652427 -0.9361433 0.35151455 -1.6938947 0.31831378
-1.802315 0.53596985 -0.6911672 -3.519496 0.9741077 -0.7544587 -2.0541885 -1.0329708
-0.8570853 -1.2345251 0.3603883 -1.2422894 -1.3403819 -0.2755298 -0.17468481 0.22073308
1.285063 -0.45974413 0.69224995 0.9495395 -0.542915 -0.012692626 0.49073774 -0.35581586
0.44254908 0.61567837 -0.88445014 -0.53954476 1.5073603 -0.30650046 -1.0804669 1.3837249
0.9246702 -0.49616662 0.59119207 0.57193446 1.2661159 0.24011053 0.34706563 -0.93798757
0.26671532 1.7211387 0.28171536 -0.3383748 0.8148389 -1.3163286 -1.3559489 0.5351281
1.1652911 -1.2032881 -1.557455 -0.68591535 -1.3651533 1.5582998 0.7313029 -1.2761549
0.7523888 0.2237702 -3.6553302 -1.4651567 0.09622654 1.3440005 -0.8093354 -0.29929125
0.9190061 2.5674925 -0.0579302 -0.19132784 0.6990405 0.50936884 -0.30759877 1.0295235
0.06062258 1.8454199 -1.8537784 -2.3363402 -2.1618903 -2.2717483 -0.84960675 -1.939132
2.8259156 1.0821873 -2.0622077 -1.6309425 0.40990967 -0.538059 1.3021615 0.96344715
-0.1551817 -2.2268322 2.240325 -1.7978836 0.94155765 -1.9212843 1.3309987 1.433608
-0.93396556 -0.7672296 -0.43957883 -0.013357619 -1.5265614 -0.4293502 -0.218727 -1.4904495
1.8094913 1.2162008 2.1211996 2.7944431 -4.350196 3.2506964 -4.5992026 4.409138
0.6440352 0.8478076 -0.11896165 -1.8737171 1.6843207 -1.1261659 2.5319252 1.5472707
1.2723243 1.4289063 -1.3333956 -0.81332153 1.8068893 5.130873 -2.8893476 -4.070049
-0.28610554 -0.75350934 -2.689769 2.6300092 1.7348697 -2.3742526 -2.2974548 -1.4438417
1.9566936 -1.5046778 0.46983576 5.6060553 0.42003518 1.1908379 0.63903666 -0.5445749
0.43336535 -4.644542 0.81105006 -4.689254 0.22709455 -0.31747317 4.222063 -0.7483741
-0.9779313 0.38940156 -1.4924678 -0.4333908 0.35425815 -3.017002 -3.1315484 -0.98491544
-2.219877 -2.5265703 -2.7690105 0.8394197 0.87157744 -3.5957856 -1.5277483 1.2962818

project.weight f4 [64, 32]
00000000: a225 0a3f 71ed 06bf d34a 1bbc 49b9 433e
00000010: e64a 923b 3c3e 6c3d 6fef f3be 7bc8 fc3d
00000020: 0197 ea3e eaac 0f3f ae3f 9b3e fcd2 71bf
00000030: 243d 2b3d f937 0b3e c9d6 e73c 0bef 8e3d
00000040: 4c47 12bf 5d30 013f 3483 153d c0a8 17bf
00000050: b15e 363e a958 0740 52aa 893e 03ca 60bf
00000060: 831a ba3e 1589 95be 2587 333e 1392 f83e
00000070: ebfd ad3d 4957 9abc 5c7a 8d3f a24f 6f3d
00000080: 2493 aabe 1bc4 2a3f 84bd ff3f e3fe 50bf
00000090: 6fbd b6bf 9c70 0a3f f590 843f f5af e0bf
000000a0: 105d 23bf 27db 743f 4a6c babf 7df7 0cbf
000000b0: c565 2ebf 378a 46be 178e 96be 6d11 173f
000000c0: be15 acbe d745 253f 25af 183f cb60 a53f
000000d0: cce9 ad3e cc7e ec3f 6078 99bf 0885 56bf
000000e0: f96e e6be 7f42 313f aceb 82bf fa9f 78bf
000000f0: e5eb e1be 607f 0abe b192 c6be 2b5a 55bf
00000100: d49a 52bd 6215 523e 3796 893e 1ca7 26be
00000110: 710c 2d3f 929e a63e 31a3 24be 381b 3cbc
00000120: a68f 95bd 7980 3a3f 6946 093e 976d b73f
00000130: a9dd 22bf 45df 03bf 16d8 22bf 7721 5bbe
00000140: 5283 2a3e 9b0c 593f 8bb3 02bc 33cb 75bd
00000150: 9432 f03e 6bd2 983f 0aad 133f 93ba 4cbe
00000160: e1bd b0be 32d8 27bc df0a 12bf b17b b73e
00000170: 31b6 f1be d573 063f 7563 b13f 19d5 64bf
00000180: 3adf 5ebf b531 733f 99b4 0fbf abc1 65bf
00000190: 1e43 54bf 5534 2b3f 9fca 263f e8d5 20bf
000001a0: d642 58bf d1a7 04bf ce39 60bf b703 2c3f
000001b0: ff2a 60bf a83f 4e3f 931f 64bf 9c8e 5c3f
000001c0: 1ed7 2c3f a35a 5cbf 20ba 09bf 379c 233f
000001d0: 8f35 413f 9982 f13d 2a8e 3bbf 9338 06bf
000001e0: 03d9 8bbf 39d3 6c3f df8c 48bf 6ef0 3fbf
000001f0: e050 223f 4703 1f3f acb5 d2be 018f 36bf
00000200: 73c8 26bf ce6e 5a3f 049e 11bf 1fbb 64bf
00000210: ac50 41bf f976 153f bdc4 473f 05f9 06bf
00000220: ebad 37bf 1b4c 47bf ca0a 45bf 9f65 483f
00000230: d258 59bf 8300 213f 6d2a 40bf 3865 213f
00000240: ab12 6b3f 6064 7dbf 4a32 38bf fd3d 2a3f
00000250: 8896 2e3f 78e9 85bd 7807 11bf ff5a 11bf
00000260: 09cd 4cbf b838 3c3f adf5 71bf d02b 64bf
00000270: eb8d 333f f48d 5a3f 8192 00bf 0bec 2dbf
00000280: 50c3 ed3e 8bd9 2dbf 47d0 e23e 4885 0a3f
00000290: 0606 3a3f e3b2 c5be fb85 31bf bcd5 253f
000002a0: b3eb c23e 03c7 043f 1524 fc3e da6c 0dbf
000002b0: 735e f73e 9ad0 32bf 38a1 493f 50ec efbe
000002c0: 0e63 2abf d832 6b3f 4d2b 263f 202c 0abf
000002d0: 7b37 3ebf c93f fbbe e7e2 da3e 88df 163f
000002e0: 5865 d53e 20bc 0abf 19b6 103f d58c 0f3f
000002f0: 19b6 dbbe bb20 08bf 325c 003f 80c4 1b3f
00000300: c293 32bf b976 543f 045a 52bf a9e7 74bf
00000310: abc3 2fbf 5bf7 053f 449c 793f eb1c 2dbf
00000320: 7c60 3cbf 4747 09bf 09af 67bf c644 4d3f
00000330: c6c9 4abf 9f95 583f 0f36 20bf d5b0 303f
00000340: 4254 633f 8c1b 65bf 13af 0ebf 9b68 693f
00000350: 28bc 5e3f fd5a 86bd ca4e 70bf d006 85be
00000360: ddb9 5bbf 3e02 2d3f b2c9 44bf 60e2 80bf
00000370: 2598 713f 4ab9 3d3f 9f61 3fbf ddca 50bf
00000380: bda3 6c3d 55fe ff3e f959 8d3f 3152 713f
00000390: 0f8d d2be 7b58 573f 051c 1cbf 0521 eebd
000003a0: 96de 133f ac47 16bf 5371 d1be 4716 693e
000003b0: 4729 18bf 294e e73e 526e 8bbe c771 cabd
000003c0: f7ad 1dbe b2e4 d9bf 1d4b af3e f116 d4bf
000003d0: be28 e5bd 19d0 6d3f 0178 eabe 21ef 1bbf
000003e0: 5850 0f3f 35c0 093e 70c8 fbbe 9692 903f
000003f0: 2af6 b3bf 13da b4be d82b d03e 2908 b5be
0.53963673 -0.52706057 -0.009478289 0.1911365 0.004464495 0.05767654 -0.4764361 0.12342926
0.45818332 0.5612322 0.3032202 -0.9446256 0.041806355 0.1359557 0.02830066 0.069791876
-0.5714004 0.5046442 0.03650208 -0.5924187 0.1780956 2.1147864 0.26887757 -0.87808245
0.36348352 -0.29206148 0.17532022 0.48548946 0.08495697 -0.018840449 1.1052966 0.058425553
-0.33315384 0.66705483 1.997971 -0.81638926 -1.427656 0.5407808 1.0356737 -1.7553698
-0.6381388 0.956469 -1.4564297 -0.5506514 -0.6812404 -0.19388662 -0.2940528 0.59010965
-0.33610338 0.6455969 0.5964225 1.2920164 0.33967435 1.8476195 -1.198986 -0.8379674
-0.4500654 0.6924209 -1.0228171 -0.97119105 -0.44125286 -0.13525152 -0.38783792 -0.8334071
-0.051417187 0.2051597 0.26872417 -0.16274685 0.6759711 0.32542855 -0.16077878 -0.011481099
-0.073027894 0.72852284 0.13405766 1.4330319 -0.63619477 -0.5151256 -0.6361097 -0.21399485
0.16651657 0.8478486 -0.007977377 -0.06000824 0.46913588 1.1939214 0.5768591 -0.19993047
-0.34519866 -0.010244416 -0.5704784 0.35836557 -0.47209314 0.52520496 1.3858477 -0.8938766
-0.87059367 0.9499772 -0.56134945 -0.8974864 -0.8291491 0.6687673 0.65152925 -0.62826395
-0.84476984 -0.5181857 -0.875882 0.6719317 -0.87565607 0.8056588 -0.8911068 0.86155105
0.6751574 -0.860758 -0.5379963 0.6391024 0.7547235 0.11792488 -0.732638 -0.52430075
-1.0925602 0.925098 -0.7833995 -0.7497624 0.63404655 0.62114376 -0.4115423 -0.71311957
-0.6514961 0.85325325 -0.5688174 -0.89348024 -0.7551372 0.5838466 0.78034574 -0.52723724
-0.7174975 -0.778505 -0.7696959 0.7828006 -0.84901154 0.62891406 -0.75064737 0.6304507
0.9182536 -0.98981285 -0.71951735 0.66500837 0.6819844 -0.06538671 -0.5665202 -0.56779474
-0.8000036 0.73524046 -0.94515496 -0.8912935 0.70138425 0.85372853 -0.5022355 -0.679383
0.46438074 -0.6791007 0.44299528 0.5410962 0.7266544 -0.38613042 -0.6934506 0.6477926
0.3807045 0.5186617 0.49246278 -0.5524422 0.48314247 -0.6984955 0.78761625 -0.4685998
-0.66557395 0.91874456 0.6490982 -0.5397358 -0.74303406 -0.49072102 0.42751238 0.5893483
0.41678882 -0.54193306 0.5652786 0.5607427 -0.42912367 -0.5317494 0.5014068 0.6084671
-0.6975671 0.82993656 -0.821686 -0.95665985 -0.6865794 0.5233056 0.9750407 -0.6762225
-0.73584723 -0.53624386 -0.9050146 0.80183065 -0.7921413 0.84603304 -0.62582487 0.69019824
0.8880044 -0.8949516 -0.5573589 0.9117524 0.87005854 -0.065603234 -0.9387022 -0.2598176
-0.8583048 0.67581546 -0.7687026 -1.0069084 0.9437278 0.74110854 -0.7475833 -0.81559545
0.05777334 0.49998727 1.1043082 0.9426604 -0.41123244 0.84119385 -0.60980254 -0.11627392
0.57761514 -0.5870311 -0.40906772 0.22762404 -0.59437984 0.4517682 -0.27232605 -0.098849826
-0.15398394 -1.7022917 0.34236994 -1.6569501 -0.111894116 0.92895657 -0.4579468 -0.60911757
0.5598197 0.13452227 -0.4917636 1.1294734 -1.4059498 -0.35322627 0.4065845 -0.35357788

project.bias f4 [64]
00000000: ba47 04bf 4e65 b73f 29f5 263e 503e 4a3f
00000010: 6c33 463f 9189 e6be 1da1 1b3f d103 333f
00000020: 6fd5 f7be 9686 aebe 1179 9ebe 93a2 d1be
00000030: e7be 46bf eafa 4f3f 7abe b23e a025 2b3e
00000040: ee01 253f 02d4 01be 933d 06bf 2252 323f
00000050: 7cfd 293f 4c9c febe 5a89 1dbf c7f0 033f
00000060: 7456 0c3f dcb4 3abe 47ce b73e 5ac4 96be
00000070: fcdc 1ebf be8b a63e 0d49 1f3d 208c 2bbd
00000080: e6a8 8fbe a493 febe f221 4dbf 8d0d 483e
00000090: a00e e9be 84ee 393f ce8c 70bf efb1 5d3e
000000a0: 9fd0 37bf 14e2 b9bd b613 e73e bcab 453e
000000b0: 968c 09bd c4c9 43bf fc46 15bf a497 083f
000000c0: fa2b 96be 8255 0dbf 59d5 61be b063 99be
000000d0: 80b0 c6be 1ee0 5c3f a951 453f 8d2d ed3e
000000e0: b77d 8fbd f5a3 823e 66e1 ecbd 7c2a 91be
000000f0: e353 44bf 763b 323f 3c0d 1d3f accc 1d3f
-0.51671946 1.4327791 0.16304459 0.7900133 0.77422214 -0.4502683 0.60792714 0.699277
-0.48405024 -0.34087056 -0.3095174 -0.40944347 -0.77635044 0.8124224 0.34910947 0.16713572
0.6445607 -0.12678531 -0.52437705 0.69656575 0.6640241 -0.4972862 -0.61537707 0.5153927
0.54819417 -0.18233055 0.35899565 -0.2944668 -0.62055945 0.3252849 0.038888026 -0.04188168
-0.28058547 -0.49722016 -0.8012992 0.19536419 -0.4551897 0.7262957 -0.9396485 0.21649908
-0.71802706 -0.09076324 0.45132226 0.19303793 -0.03358134 -0.76479745 -0.5831144 0.53356385
-0.29330426 -0.552086 -0.22054042 -0.29958868 -0.38806534 0.86279476 0.7707773 0.46323815
-0.070064 0.25515714 -0.11566429 -0.28352726 -0.766905 0.6962198 0.6134832 0.6164043

rnn.weight_ih_l0 f4 [64, 32]
00000000: c271 403f 1bf1 37bf 0eff 563f b65b 293f
00000010: 8081 e73e 7c40 febe caa3 44bf 116e 553f
00000020: 3615 a53e 7d6a 683f 4665 f03e 0314 28bf
00000030: f4e6 523f 0cf4 63bf de89 183f 15ca f1be
00000040: 5f05 abbe 752b 703f a8d7 fc3d 7e5b 45bf
00000050: ab2d 0cbf 84f6 403e e689 a63e 3c6a e33d
00000060: aac9 783f 23ea f7be 4dca 053f 2686 013f
00000070: fb94 56bf 30c4 1ebf 0810 403f ea13 5b3f
00000080: 850f 26bf 915a 043e fc64 69bf c7c0 1fbf
00000090: 1d4f febe 6cc0 4c3f 812b ce3e 4115 5b3f
000000a0: c705 8ebf 80b6 1b3e 32d4 7fbf eaa5 653f
000000b0: 1fda 62bf 3326 d63e be6c 69bf 91f4 4c3f
000000c0: 4376 b23f c0de 0340 1a6c 6ebf 5d51 513e
000000d0: d157 c23e d50c 853f 3824 0abf 9289 bebe
000000e0: 3f19 633f b0be 5f3f f5fb 1ebf a99f 09bf
000000f0: 8327 433f 8387 423f af21 15c0 a92c 1cbf
00000100: 0f9c a3be 4464 ff3d a964 c33e 91d4 a5be
00000110: 02a8 85bf a9b1 413f a606 a93e dfe1 bd3e
00000120: eb0c 70bf fe6b 013e fc13 0ebf 9156 a53f
00000130: b8be 04be 6bb5 f73c 5ecd c5be 078c 3c3f
00000140: ec48 893f b7fc 493f 4036 17bf a169 b5bd
00000150: bd06 203f c93a 4d3f 5397 66bf f45d 0bbf
00000160: 2d86 5c3e c91c 633f 2360 17bf 51cd 2fbf
00000170: b6a3 44bd 09e6 463f 5e25 e8bf a8f6 323d
00000180: 7b81 6ebf a085 333f 43fb 763e a1dc 4dbf
00000190: e707 0a3e edba f13c c909 653f ac8e dabe
000001a0: 46d1 bbbe 7e48 64be 23fd 8f3d 78aa 413f
000001b0: 9896 44bf 49c7 793f 8473 c9be 51b7 233f
000001c0: 6eeb 03bf 1bf8 32bf 475e cf3e a86e 803f
000001d0: 71c2 283e 50f1 05bf ca36 fcbc a583 063f
000001e0: 5f5d 31bf b3b0 c43e 85ad abbe 1985 c6be
000001f0: 799b 773f ad74 063f 4638 4ebf f939 84bf
00000200: 2e9f 0cbf 162a fb3e f1d3 e1bc 0f30 f0be
00000210: 6156 44bf d3b8 0e3f ec15 0f3f 51c2 0a3f
00000220: e464 68bf 3248 d83d acbd 3fbf e54a 1c3f
00000230: 1894 c0be fbeb 9b3e db6b e7be 1f8e 333f
00000240: e58b 6d3f d2d2 8f3f 3711 62bf 357c 8b3e
00000250: 809b de3e 9acb 1d3f 8669 4dbf d9da 69bf
00000260: 5656 9abc 21db 423f d0a2 25bf a84a 1bbf
00000270: 8654 b73d ecb7 0b3f 9964 f0be 3c0c cabe
00000280: 147e f23e 16b3 04bf 2a33 ab3e 67da da3e
00000290: a936 483f 3303 16bf 78ef 1cbf b85b 70be
000002a0: 472d 603f e7a7 4b3e 9de7 253f 1f94 23bf
000002b0: b3de 033f e23d b3be 3353 0d3f a475 08bf
000002c0: acb4 28bf 058b 713d ac06 633f b055 d6be
000002d0: 1211 07bf 011f 58bf 4ea7 2e3f 9b0c 5f3f
000002e0: 2def 06be 5e50 26bf 3792 2c3f f606 263f
000002f0: 33f7 53be ab67 33bf 12aa 0e3f a8ab b33e
00000300: 9458 3f3f 127d 75bf fef9 353f e590 763f
00000310: 5cbf 5bbd 67fb 46bc cad6 64bf 3874 483f
00000320: 8c2f dbbc ac7f 603f 65b6 263c 8425 0dbf
00000330: 8f5d 5a3f 8b46 4abf 59c4 453f 2e21 27bf
00000340: 85f9 413d 4937 0d3f 6942 52be 4999 63bf
00000350: d4cf 46bf 80c9 c03d daaf 93bc 1291 78be
00000360: adf1 343f 591f cebd f3af 703d 5989 073f
00000370: 4b1e 39bf 4399 0cbf c639 a03e 85eb 603f
00000380: d6f7 b03e ca43 fdbe 2c90 a93c 37eb af3e
00000390: a819 313f 3d5d 2ebf 03ff 97be 7e91 4abe
000003a0: 3664 513f 2795 af3d 75d6 4c3f 8362 dfbe
000003b0: e4cb 993e 05f4 08be abb3 c63e 11cd 3ebf
000003c0: 1839 77bf 34f6 e9ba a873 803f 75e4 b3be
000003d0: c30c 22bf 0cb8 58bf 8d02 3a3f 3362 7a3f
000003e0: e115 97be 95d0 45bf d165 5e3f e156 123f
000003f0: 9e92 6c3c 8ea5 09bf bdc3 1c3f d53b b93e
0.7517358 -0.7185227 0.8398293 0.66155565 0.45215988 -0.49658573 -0.7681242 0.83371073
0.32242745 0.9078749 0.46952266 -0.65655535 0.82383657 -0.8904426 0.5958537 -0.4722449
-0.33402535 0.9381631 0.12345821 -0.7709273 -0.54757184 0.18844038 0.32527083 0.11104247
0.97182715 -0.4842082 0.5226181 0.5059532 -0.83821076 -0.6201811 0.7502446 0.8557726
-0.6486743 0.12925173 -0.91169715 -0.6240353 -0.49669734 0.7998111 0.40267566 0.85579306
-1.1095513 0.15206337 -0.9993316 0.8970629 -0.88614076 0.4182602 -0.9118155 0.8006068
1.3942341 2.0604706 -0.931337 0.20441194 0.37957624 1.0394541 -0.53961515 -0.37214333
0.887104 0.8740034 -0.62103206 -0.5375925 0.76232165 0.75988024 -2.330181 -0.61005646
-0.31955 0.12470296 0.38162735 -0.32388738 -1.0441897 0.7566171 0.33012885 0.37086388
-0.9376971 0.12638852 -0.55499244 1.2917043 -0.12963378 0.030237874 -0.38633245 0.73651165
1.0725379 0.7890124 -0.59067154 -0.08858038 0.6251028 0.80167824 -0.9007465 -0.54440236
0.21535559 0.887158 -0.5913107 -0.6867266 -0.04800769 0.77694756 -1.8136404 0.04369226
-0.9316632 0.7012577 0.24119286 -0.8041478 0.13479577 0.029508078 0.89468056 -0.42686975
-0.366831 -0.22293279 0.07030704 0.7565074 -0.7679229 0.9756971 -0.39345944 0.63951594
-0.5153111 -0.6990983 0.40501615 1.003377 0.16480424 -0.5232134 -0.030787844 0.52544624
-0.692831 0.3841606 -0.33530822 -0.3877342 0.9672161 0.52521783 -0.80554616 -1.0330192
-0.5493039 0.49055547 -0.027566882 -0.46911666 -0.76694304 0.5575077 0.55892825 0.54202753
-0.90778947 0.10560645 -0.7489879 0.6105178 -0.37612987 0.30453476 -0.45199475 0.70138735
0.9279159 1.1236212 -0.8830752 0.272432 0.43478012 0.61638796 -0.8023914 -0.9134956
-0.018839996 0.76115614 -0.6470156 -0.6066079 0.089516684 0.5457752 -0.4695175 -0.3946246
0.47361815 -0.51835763 0.33437473 0.42744753 0.78208405 -0.5859863 -0.613029 -0.23472488
0.8756909 0.19888268 0.6480654 -0.6389789 0.5151169 -0.3500815 0.55205077 -0.53304505
-0.65900683 0.05897047 0.88682055 -0.4186225 -0.5276042 -0.8442231 0.68224037 0.8712861
-0.13177176 -0.6496638 0.67410606 0.6485437 -0.20699768 -0.7008006 0.55728257 0.350919
0.74744534 -0.9589397 0.7108458 0.9631484 -0.05364929 -0.0121449 -0.8939024 0.78302336
-0.02675607 0.8769481 0.010175322 -0.5513537 0.8529901 -0.7901389 0.7725273 -0.65285003
0.0473571 0.55162483 -0.20533146 -0.8890577 -0.7766087 0.09413433 -0.018028188 -0.2427409
0.7068127 -0.10064573 0.05876155 0.5294395 -0.7231185 -0.5492136 0.31294078 0.87859374
0.34564084 -0.4946578 0.02069863 0.34359142 0.69179773 -0.6811102 -0.29686746 -0.19782063
0.81793535 0.085733704 0.80014735 -0.43629846 0.3003837 -0.13374336 0.3880895 -0.74531657
-0.96571493 -0.0017849864 1.0035295 -0.35135236 -0.6330072 -0.84655833 0.7266014 0.9780609
-0.2950888 -0.77271396 0.8687411 0.57163817 0.014439253 -0.5376824 0.6123617 0.3617846

rnn.weight_hh_l0 f4 [64, 64]
00000000: b445 563f 815e 983e d23b eb3e 6486 23bf
00000010: a246 283f de8a febe 2a71 0b3f 8b3c 34bf
00000020: 70ca 043f da1a 7ebf f62c 1e3f a57e 363d
00000030: 853b 18bf 97f5 3c3f b01c 0cbf a56d 823f
00000040: f817 49bf 37d3 153f ac20 3bbf 18a5 1cbf
00000050: 4726 2cbf bde7 45be 8bf5 04bf 5ccb cfbe
00000060: 942c 00bf cd7b 29bf a601 fbbe 4913 1ebf
00000070: 1b7c f0be 80ad 41bf 2db9 3d3f b393 1f3f
00000080: e72e 70bf db66 273f 7e6b 04bf 7dbf 223f
00000090: 4aea 023f 4071 0ebf e3b7 173f ce52 0cbf
000000a0: 4dd6 0abf e71f 29bf eb24 6b3f efb1 353f
000000b0: 573d ce3e 7d97 1a3f bbd9 093f f236 13bf
000000c0: 9348 0a3f 41b2 0bbf f281 24bf 1e85 183f
000000d0: 0d6b d1be 3492 edbe 5508 0ebf 2c5f f3be
000000e0: d1ef 3f3e 6794 1f3f 4c7f 283f 16c9 34bf
000000f0: a4e4 10bf 2506 093f 39b1 383f 330d 0f3f
00000100: bea7 a4bd 812d a9bf 36e9 01bf 64ec f83e
00000110: f665 f1be e283 1a3f a167 fdbe c480 223f
00000120: a653 5dbf ff28 463e e1fe ccbe 8ff6 7f3f
00000130: 0fc5 103f 76cc fdbe d698 df3e d583 a53e
00000140: 8838 ca3e 58f5 f1be f6ea 0e3f a704 013f
00000150: f939 da3e ead4 eb3e 68af f53e 9fe8 343f
00000160: b61c 253f 6c1a c93d c629 473f fc6d 073f
00000170: dc3a 713f da87 af3e 1abe 28bf 82df 44be
00000180: bc4e 043e 0885 ebbe 697d 0f3f cc79 843f
00000190: f6e1 0abf 8099 5f3f 1aa0 983d c92c 233f
000001a0: 6bc1 0c3f 42ff 533e 4333 dbbd 6a13 2dbf
000001b0: db01 66bf 8344 b5be 5c06 21bf 7798 e53e
000001c0: 0cbe ebbe 625f fc3e af90 5dbe 7699 28bf
000001d0: fed6 513f 0b5a a03e 9f7b 1b3f 8919 fa3e
000001e0: 301e 66bf f42c 02bf 0106 26bf 474b 0d3f
000001f0: 2f43 ee3e 107b 31bf 8721 12bf 33d2 49bf
00000200: 7f31 913e 501e 84bf bd47 51bf 2e1e 9f3d
00000210: 2bb1 17bf ca12 1f3f 99d7 2abf bd70 553f
00000220: e28e 6dbe 7bcf b5be d5a6 edbe 12f7 a93f
00000230: 0de0 253f c0c7 08be be9c 073f b2d4 403f
00000240: c553 783e 1fa3 0ebf 2cf6 0d3f 454c 993e
00000250: 6813 583e b172 be3e e3ad 053f 26b5 7a3f
00000260: 14a8 243f ebd4 8d3e 0fa0 823f 78ea 1e3f
00000270: f341 863f 8dd3 283e cfd8 f6be b693 bd3d
00000280: 914a 50be 9a73 debe 7c62 3f3f 7705 843e
00000290: 581c 14bf c9ac 603e bece 05bf bfd8 133f
000002a0: 4692 323f 39e6 763d 41ca bc3e e4f9 0dbf
000002b0: 7190 98bf d29b 2dbf 1dee 12bf c5ef 083f
000002c0: 56db e3be 7190 003f bebf 0bbe 4665 f0be
000002d0: 7914 483f 197a d63e 4661 0e3f b4b1 723f
000002e0: 39d3 95bf 8fbf 09bf 88e2 16bf 5373 db3e
000002f0: ea8d 003f fe8a 6ebf 3d2c 1fbf dfd9 21bf
00000300: 4aea 6dbf 8a05 c43e 1c8d 89bd e828 743f
00000310: fd1d b1bb 54d1 eb3d c640 59be 2b44 0d3f
00000320: 5a09 3bbf b2a3 3f3f e436 54bf 668e f5be
00000330: c364 babd e030 78bf 6633 863f b092 57bf
00000340: 2801 823f 9aed 79bf f625 5c3f a98a 843f
00000350: d28a 6f3f 36e2 05bd 419f 02bc ba63 87be
00000360: b6d8 d33e 97f8 9dbd 3309 04be ad23 ee3e
00000370: 4147 0dbf 909d 693f e8fb 55bf ca8c 63bf
00000380: b254 743f 78f6 4ebf 9f2a 7abd 6770 13bf
00000390: ddf8 68bf f018 473f e844 07bd 08d3 503f
000003a0: d9f9 fd3d 6081 953f 9818 5cbf 2b2a a3bd
000003b0: 5dce dc3e 7b3f 0ebe b4b9 65bf 9ac8 413f
000003c0: 9826 64bf a85a 253e 8d0d 853e 0162 51bf
000003d0: e78a afbe 8902 7d3e 09a8 573f f4c7 003f
000003e0: 8a61 9d3e 63aa 89bf 4cd1 21be 284d 603f
000003f0: aa13 803f 9ce2 6e3e bbe1 57bf db3b 153e
0.8370011 0.297596 0.45944077 -0.6387694 0.6573278 -0.49715322 0.5446955 -0.7040488
0.51871395 -0.9925972 0.61787355 0.04455437 -0.5946582 0.7381224 -0.54731274 1.0189711
-0.785522 0.58525413 -0.7309673 -0.61189413 -0.67245907 -0.19326682 -0.5193717 -0.40584838
-0.5006802 -0.6620453 -0.49024695 -0.61748177 -0.46969685 -0.75655365 0.7411068 0.62334746
-0.9382157 0.6539132 -0.5172652 0.6357344 0.51138747 -0.55641556 0.59264964 -0.5481385
-0.5423325 -0.66064304 0.9185321 0.7097463 0.40281174 0.603874 0.53847855 -0.57505715
0.5401699 -0.5456887 -0.6426078 0.5957812 -0.40901986 -0.46400607 -0.55481464 -0.47533548
0.18743826 0.6233582 0.6581924 -0.7061933 -0.5659888 0.53525 0.7214542 0.55879515
-0.08039807 -1.3217012 -0.50746477 0.48617852 -0.47148103 0.6035749 -0.49493125 0.6347773
-0.8645576 0.19351576 -0.40038207 0.99985594 0.5655069 -0.49570054 0.43671292 0.32327142
0.39496255 -0.47257495 0.5582727 0.50397724 0.42622355 0.46060878 0.47985387 0.7066745
0.64496934 0.09819493 0.77798116 0.529022 0.9423044 0.34283334 -0.6591507 -0.19225886
0.1292066 -0.45999932 0.56050736 1.034967 -0.5425104 0.873436 0.07452412 0.6374021
0.5498263 0.20702842 -0.10703137 -0.6760775 -0.8984658 -0.35403833 -0.6290033 0.44842884
-0.46043432 0.4929152 -0.21637224 -0.6585916 0.8196868 0.31318697 0.60735506 0.48847607
-0.8988981 -0.50849843 -0.6485291 0.5519299 0.46535632 -0.69328403 -0.5708241 -0.78836364
0.28358075 -1.0321751 -0.8175009 0.07769428 -0.5925471 0.62138045 -0.66735226 0.8337515
-0.23199037 -0.35509858 -0.46416345 1.3278525 0.64795 -0.13357449 0.52973545 0.7532455
0.24250706 -0.55717653 0.55453753 0.29941002 0.21101153 0.37196878 0.52218455 0.9793266
0.64318967 0.27701506 1.0205096 0.6207652 1.0488876 0.1648695 -0.48212287 0.09256689
-0.20340945 -0.43447572 0.7475965 0.2578542 -0.5785575 0.21940912 -0.5226859 0.57752603
0.69754446 0.06027815 0.36873057 -0.5545943 -1.191908 -0.6781589 -0.5739458 0.5349086
-0.44503278 0.502204 -0.13647363 -0.46952266 0.7815624 0.41890028 0.5561718 0.94802403
-1.1705085 -0.5380792 -0.5893941 0.42861423 0.50216544 -0.93180835 -0.6217688 -0.6322307
-0.9293562 0.38285476 -0.067163676 0.9537492 -0.005405186 0.115145355 -0.21216115 0.5518214
-0.73061144 0.74859154 -0.82896256 -0.47960204 -0.0910125 -0.9694958 1.0484436 -0.842082
1.0156603 -0.97628176 0.85995424 1.0354816 0.935712 -0.032686435 -0.007972539 -0.26443273
0.41376275 -0.077134304 -0.12894134 0.46511593 -0.5518685 0.91256046 -0.83587503 -0.888867
0.95441735 -0.8084483 -0.061075803 -0.5759339 -0.91004735 0.77772427 -0.0330247 0.8157201
0.1240117 1.1680107 -0.8597503 -0.07967027 0.43126193 -0.13891403 -0.89736485 0.7569672
-0.8912139 0.16147864 0.259869 -0.8179017 -0.34285662 0.24707998 0.84240776 0.50305104
0.3073848 -1.0755123 -0.15802497 0.8761773 1.0006001 0.23328632 -0.8432881 0.14573614

rnn.bias_ih_l0 f4 [64]
00000000: f9d1 04bf 035f 4a3f 0385 6a3f 08dc 2cbd
00000010: 0156 413f 4609 17bf 1441 a8bd 090b 4dbf
00000020: 6a7e 663f 4bb4 e13e 0a3f f3be 9bb1 3ebf
00000030: 8de5 2bbf d2c8 02be 291e de3e eae2 87bd
00000040: 83bb 103f fba3 d4be 6204 093f b999 a03e
00000050: 9372 003f 7536 a03e ec02 da3d 3d6e 1ebf
00000060: 002c 53bf e86f 32bc 2392 1ebf a547 64bf
00000070: a24d 40bf 3e9f d13e 27c5 83be 5805 03bf
00000080: 409d b33e 0af8 a8be 05cc 25bf 2489 6c3f
00000090: 3a04 58be da95 54bf ac46 5d3f 4aa4 f43e
000000a0: b6de b03e 17b6 bf3e 78c6 0bbf ad21 acbd
000000b0: bc27 2c3f dbfa 443f 9b1d 09bf ad41 d33e
000000c0: 03a7 e8be 6258 323a ff24 58bf ee7b 25bf
000000d0: c18c 08bf 9337 6cbf 1c16 e93e dbc1 60bf
000000e0: febd 2e3f 5aad 88be 9f23 2a3f d4e0 063f
000000f0: d1c5 f93e 5b68 313f 57af ebbe e7c1 423f
-0.5188289 0.79051226 0.9160921 -0.042202026 0.75521857 -0.58998525 -0.08215538 -0.80094963
0.9003664 0.44082865 -0.47509032 -0.74489754 -0.6714714 -0.1277192 0.43382385 -0.06635077
0.5653612 -0.41531357 0.5352231 0.3136728 0.50174826 0.31291547 0.106450886 -0.6188696
-0.82489014 -0.010890938 -0.61941737 -0.8917182 -0.7511846 0.40941805 -0.25736353 -0.5118003
0.3508091 -0.3300174 -0.64764434 0.9239676 -0.21095362 -0.83041155 0.8643596 0.47781593
0.34544915 0.3744361 -0.54599714 -0.08404861 0.6724813 0.76945275 -0.535608 0.41261044
-0.4543992 0.0006803331 -0.8443145 -0.64642227 -0.53339773 -0.922723 0.4552468 -0.877958
0.68258655 -0.26694757 0.66460603 0.5268681 0.48783734 0.6929986 -0.4603221 0.7607712

rnn.bias_hh_l0 f4 [64]
00000000: 7078 05bf ef6e 1d3f c4df 563f ab3d 093e
00000010: 4e1a 4c3f 2a18 1bbf 3697 3dbe a8c1 39bf
00000020: 6b30 5c3f 2416 163f 8d95 e0be d3c8 29bf
00000030: 7d68 61bf 64a2 f2bd 294d 003f fde3 febc
00000040: 7215 e73e 2d92 14bf 4bf8 003f 13a6 d73e
00000050: 5923 123f ff93 993e 1b54 3c3e c659 34bf
00000060: 2804 43bf da24 fdbd 1afe 05bf 2117 4abf
00000070: c2f5 0cbf f738 ad3e 3cda 42be fb8d 0dbf
00000080: 7c15 c63e 05df bcbe 0349 2bbf 2536 823f
00000090: 3bcf 9dbe 2c0e 50bf b480 3d3f b89d fc3e
000000a0: 9601 a23e da54 a03e 1903 03bf a4ee cdbd
000000b0: e479 413f db13 3b3f 638e d3be 37f3 133f
000000c0: 6e68 c7be 291f 7dbc ed49 56bf db2a f5be
000000d0: d541 45bf 24a6 6cbf 8f6a 033f 1eee 65bf
000000e0: 5a34 0b3f c5c7 acbe 888c 253f 622e 0d3f
000000f0: dcbb 073f 13f8 353f 5a56 ecbe 5d19 593f
-0.521369 0.61497396 0.8393519 0.1340243 0.7972764 -0.60583746 -0.18514714 -0.7256112
0.8601138 0.58627534 -0.43864098 -0.6632206 -0.8805006 -0.1184738 0.5011774 -0.031114573
0.4513355 -0.58035547 0.50378865 0.42118892 0.57085186 0.29995725 0.18391459 -0.70449483
-0.76178217 -0.123605445 -0.52340853 -0.7894154 -0.55062497 0.33832523 -0.19028562 -0.5529477
0.38688266 -0.368889 -0.6690828 1.0172774 -0.30822167 -0.81271625 0.7402451 0.4933908
0.31641835 0.31314737 -0.511766 -0.10055283 0.75576615 0.7307717 -0.4131957 0.5779299
-0.3894686 -0.015449324 -0.8370655 -0.4788426 -0.77053577 -0.9244101 0.5133447 -0.89816463
0.5437676 -0.33746162 0.6466756 0.551489 0.53021026 0.71081656 -0.4615963 0.84804326

rnn.weight_ih_l1 f4 [64, 64]
00000000: 3364 173f 0583 003f d14c 143f 31a1 38bf
00000010: 0a4c 103f 0c2a 1abf 05e2 0d3f c8a6 29bf
00000020: aac5 223f 3f5b 5cbf 8555 283f 9a85 68be
00000030: 35bb 25bf efa4 223f 8b65 31bf 9ff7 7d3f
00000040: 34cb 1abf 8cd8 2b3f 6442 14bf 56bf 23bf
00000050: 2d0c 1ebf c1f7 f7be dfce 26bf 55fa 16bf
00000060: 8170 f9be 3e20 24bf a620 e7be 854d 28bf
00000070: 6e65 f1be 2ffd 17bf 34cd 273f 656b 383f
00000080: 82cc 47bf 354c 273f 12d9 1dbf 0c7b 223f
00000090: 9732 393f 6ac4 38bf 50b2 333f 111c 12bf
000000a0: 9bef 1dbf b3aa 37bf ea32 263f 0877 183f
000000b0: 0764 013f c123 053f 2766 173f 3b80 01bf
000000c0: d7f2 2f3f 2c6e 0fbf a414 19bf f21f 3b3f
000000d0: a198 09bf 8abd 0fbf d008 17bf 5f73 febe
000000e0: 8883 0c3f 0b41 373f 3642 f83e be58 2fbf
000000f0: ac06 3cbf 6834 033f 24f9 333f 2631 063f
00000100: e9a5 35bf 220f 103e 1c47 b2bc 3e73 87bd
00000110: 1087 333f 55fd 1dbf 4580 cdbe 120d e8be
00000120: dea8 843e 3feb 573e 4685 d2be 7d19 48be
00000130: 07d2 a8be 6384 13bf c7d0 9f3e 0d7e dabe
00000140: 4d68 113f c20d 75be f203 493f 5b62 233f
00000150: f646 303f aad1 303f f87b 6b3f 0e67 333e
00000160: 14b3 0cbf f7de 9fbe dff1 913f 32ca 0fbe
00000170: c41f f9be 8dc4 013f 962c 49bf be6b bfbe
00000180: 80e1 013e 37e2 38bf e579 723e 50bf c93e
00000190: 9f53 51bf fa0f febe ced0 753e 66e9 f23e
000001a0: a9df 173f 60f9 3f3f 854f a5be d2cf 45bf
000001b0: 010e 953e 449b 503e 64f4 0cbf 6001 1d3f
000001c0: 237f d9bd 9230 f23e 79db 1bbf 078c 17be
000001d0: 0a56 193d 8977 62be 47f1 113f 9f36 92be
000001e0: 4064 713e b0f1 33bf e72f 373f 1a67 213f
000001f0: ca77 373f 2662 713e 8917 33bf bb2b 103e
00000200: 739a 173f 10f2 db3e c5d5 2c3f ff4c 3abf
00000210: 4bc6 053f 2eec 0cbf e2b0 143f 5916 31bf
00000220: b49b 173f 7cb2 58bf e200 0f3f 75f0 293f
00000230: d86b 05bf 63d1 153f 3570 33bf 4b0a 3b3f
00000240: 6f68 36bf ef26 3d3f 6833 32bf 27ed 05bf
00000250: 79eb 60bf 357b 073e 9f8d 35bf 2fe1 d9be
00000260: 7a0d 2dbf 8390 26bf 6a6e 09bf da12 1dbf
00000270: 5a78 21bf b856 1bbf 65b0 283f 6f5d 2c3f
00000280: d5e1 33bf 2681 273f eafb 17bf b06d 1f3f
00000290: 16fc 093f 4f78 0ebf 3569 343f 3c76 05bf
000002a0: c921 25bf 32d9 32bf ca55 613f ba4b 263f
000002b0: b935 bb3e 20ec 183f 843a 3e3f 3084 2abf
000002c0: 5faa 2d3f 4651 27bf 3cea 35bf 23e8 223f
000002d0: a605 d3be 91ee 0bbf 7cc1 10bf 8054 16bf
000002e0: acda 0b3f 8ce5 243f f9f3 fb3e d95a 2ebf
000002f0: 10eb 0dbf 5fbb f63e b9a6 203f aeac 1c3f
00000300: 47af 02bf 91c9 1abf 58a8 1cbf b7a1 1e3f
00000310: df89 f9be 2f4f 1b3f ab77 25bf 427d 303f
00000320: 4b5c f7be 27c4 233f 539c 1abf e872 eb3e
00000330: 5523 233f 41f8 1cbf 1c48 333f 8cae 3dbf
00000340: 7352 323f 4399 36bf 4e91 2f3f 10da 233f
00000350: e0c0 113f 27ee da3e d749 113f 0d95 d93e
00000360: 5b83 0b3f db76 013f b188 193f 7145 0a3f
00000370: c9d0 193f 22b8 2a3f eaed 0fbf a519 28bf
00000380: de9b 423f ecf8 31bf b9c1 2a3f 9809 25bf
00000390: c3aa 08bf ec76 083f cbbd 18bf 8d02 2a3f
000003a0: d21a 0d3f 8da9 333f 894d 23bf d8e5 1dbf
000003b0: 4d7f f5be f2b9 2dbf 193f 19bf eaa8 363f
000003c0: 6a9e 1ebf 61ea 1b3f 3ebb 163f 2f67 33bf
000003d0: 481c 133f 95c9 143f c25d 2c3f 9ff0 213f
000003e0: 84e1 edbe bcc5 19bf 4593 11bf bd8c 293f
000003f0: 43fa 283f 5080 e8be 0c9e 20bf f190 1bbf
0.59137267 0.5019992 0.5792971 -0.7212096 0.56366026 -0.6022041 0.55423003 -0.66270113
0.6358286 -0.8607673 0.6575549 -0.22707215 -0.6473878 0.6353292 -0.6929557 0.99205965
-0.60466313 0.671273 -0.57913804 -0.6396383 -0.6173733 -0.4843121 -0.6515941 -0.58975726
-0.48718646 -0.641117 -0.45142096 -0.65743285 -0.47147697 -0.593707 0.6554749 0.7203887
-0.7804643 0.6535066 -0.6165935 0.63469005 0.7234282 -0.72174704 0.7019396 -0.57074076
-0.61693734 -0.7174484 0.6492144 0.5955663 0.50543255 0.5200768 0.5914025 -0.5058629
0.6872992 -0.56027484 -0.5979712 0.7309562 -0.5374852 -0.5614859 -0.5899782 -0.49697396
0.548882 0.7158362 0.48488015 -0.68494785 -0.7344768 0.5125184 0.70302033 0.52418745
-0.70956284 0.14068273 -0.021762423 -0.066137776 0.70127964 -0.6171468 -0.40136924 -0.45322472
0.25910085 0.21085833 -0.41117305 -0.19540973 -0.32972738 -0.5762388 0.31213972 -0.42674294
0.56799775 -0.2393103 0.78521645 0.63821954 0.6885828 0.6906992 0.91986036 0.17519781
-0.5496075 -0.31224796 1.1401938 -0.14041975 -0.48657048 0.5069054 -0.7858366 -0.37386888
0.12683678 -0.72220176 0.23679312 0.39403772 -0.8176822 -0.49621564 0.24005434 0.47443694
0.59325653 0.7498989 -0.3228723 -0.77270234 0.29112247 0.20371729 -0.5506041 0.61330223
-0.106199525 0.4730268 -0.60881764 -0.1479951 0.03743557 -0.22115912 0.57008785 -0.28557298
0.23573399 -0.7029066 0.7155747 0.63047945 0.7166716 0.23572597 -0.69957787 0.14079182
0.59220046 0.42958117 0.67513686 -0.72773737 0.52255696 -0.5504788 0.580824 -0.69174725
0.5922196 -0.84647346 0.5586072 0.66382533 -0.5211768 0.58522624 -0.7009309 0.7306258
-0.71253103 0.7388753 -0.6960969 -0.5231499 -0.878593 0.13230594 -0.7091922 -0.42554614
-0.6759869 -0.6506426 -0.53684103 -0.6135689 -0.63074267 -0.606792 0.65894157 0.6733007
-0.7026647 0.6543144 -0.59368765 0.62276745 0.5390028 -0.55652326 0.70473033 -0.52133536
-0.6450468 -0.69862664 0.8802153 0.649593 0.36564425 0.597353 0.7430804 -0.6660795
0.6783809 -0.6535839 -0.7106054 0.6363546 -0.41215247 -0.546609 -0.56545234 -0.58722687
0.5463054 0.6441276 0.49209574 -0.6810737 -0.554368 0.48189828 0.627544 0.6120099
-0.510487 -0.60463816 -0.6119437 0.6196551 -0.48738 0.606677 -0.64635724 0.6894113
-0.483126 0.6397118 -0.6039478 0.45986104 0.6372579 -0.61316305 0.70031905 -0.7409446
0.6965706 -0.7132761 0.6858109 0.6400461 0.5693493 0.4275982 0.56753296 0.4249653
0.5449731 0.50571984 0.599742 0.5401221 0.60084206 0.66687214 -0.56222403 -0.6566413
0.76019084 -0.6952045 0.6670185 -0.64467764 -0.5338556 0.5330646 -0.596646 0.6641014
0.5511905 0.7018059 -0.63790184 -0.6167884 -0.47948685 -0.67861855 -0.59861904 0.7135149
-0.6196047 0.6090451 0.5887946 -0.7007932 0.5746503 0.5812009 0.67330563 0.63257784
-0.46461117 -0.60067344 -0.5686534 0.66230375 0.6600687 -0.45410395 -0.6274116 -0.6076804

rnn.weight_hh_l1 f4 [64, 64]
00000000: d11e 303f a970 323f 09ee 023f 99c2 03bf
00000010: 1a62 f7be d9d6 0d3f 032d 0dbf c6ba 17bf
00000020: 2ec4 37bf b818 32bf bee3 0f3f 2588 493f
00000030: b4c0 333f 7827 1f3f 3ba9 2fbf eee8 28bf
00000040: b80f 30bf 3dec 2c3f b472 30bf e25f efbe
00000050: ea9c 04bf 0f86 27bf 608e e73e aec5 0b3f
00000060: 4676 0fbf a833 033f f88e 193f d7ea 053f
00000070: 1af8 173f 04a3 1abf cabd 253f 7b1d 0cbf
00000080: 9881 303f 808a 34bf 3ae0 303f 9355 223f
00000090: 8bb2 003f 4b4d f9be 514c 313f f448 f9be
000000a0: 36ef 2abf 7b4d 043f 9428 0ebf b7d8 433f
000000b0: 7664 20bf 3e48 d43e 3ecf 0dbf bab5 26bf
000000c0: c178 2bbf f230 103f 9372 3b3f 2a05 233f
000000d0: b90a 083f b59d 1b3f 2d30 26bf 1df3 fb3e
000000e0: 3089 2b3f dc2c 133f 35cd 17bf bcc7 223f
000000f0: a590 36bf 101e eebe 49b9 34bf 2335 16bf
00000100: 54ca 47bf b284 043f 99d5 2abf c24a 3a3f
00000110: 6114 4c3f 1d44 48bf a1e1 483f b50e 3a3f
00000120: 5619 28bf 8e4b 2e3f c635 4a3f 65eb 5c3f
00000130: c5ac 35bf 0f6b 3f3f a79f bb3e 5186 b03e
00000140: 5715 ca3e 38f8 3f3f 043c 13bf 54fd 3a3f
00000150: b68e bfbe 3a49 2ebf 4bef ebbe df28 d83e
00000160: c234 073f 2695 2cbf ee3b 52bf c851 063f
00000170: 9cec 4d3f cbd0 243f 8a81 ccbe 0e90 ae3e
00000180: 6afb e5be 2b03 63bf c12b debe 9da5 fd3e
00000190: 5bb0 4dbf 78f7 083f 5817 33bf e45f 253f
000001a0: 469a f33e 47ff 40bf b304 403f 1ea3 543f
000001b0: 5e87 233f 0bfe e8be 7ede b83e 7902 52bf
000001c0: e0a8 f7be 3d74 59bf d563 da3e 20da 21bf
000001d0: 25c4 fcbe 0663 c1be 40c3 5d3f 60ac b0be
000001e0: 2706 dd3e a3fa 43bf 71de 4c3f 31fd 133f
000001f0: 0087 18bf 9d32 db3e be90 193f 7ba9 403f
00000200: 76cf 033f c747 2b3f 5aa5 353f e125 26bf
00000210: 7f2f 1cbf 6dc5 143f 8985 06bf d26f 08bf
00000220: eeb8 fcbe 9be3 21bf a5f8 373f b6c3 023f
00000230: 2485 1e3f 232b f73e 236c 0dbf 7b87 1cbf
00000240: 2900 3abf 55a8 fe3e 07b4 1cbf dc71 36bf
00000250: 7924 1abf 8c4d 30bf d91c 353f 6dc4 fa3e
00000260: 9f17 e9be a0a9 2c3f 831a 0d3f 887b f83e
00000270: 0cda 353f 0736 39bf 4c00 353f d5fb f7be
00000280: ab4f 213f b3b8 23bf 4af1 0d3f 0321 183f
00000290: 87f1 1d3f b40f 24bf cf9e 253f e58b 34bf
000002a0: c1ef 14bf 6355 0a3f c2d7 16bf 785d ee3e
000002b0: c2b2 32bf 40ec 0f3f 17e9 09bf 7298 f2be
000002c0: 66e3 1bbf 4e56 403f 5cf3 1a3f 8251 353f
000002d0: cf7b 0f3f 7dcf 013f 513a 1bbf 3904 193f
000002e0: 71e5 113f 61b8 303f acfc 07bf d41c 0b3f
000002f0: 2fef 0fbf cb03 f9be ff9f 0bbf c538 14bf
00000300: ce7a 29bf a6fb 11bf 98c4 26bf c730 2f3f
00000310: de70 273f be37 23bf e466 f23e 13eb 203f
00000320: 50ef 1c3f c905 323f ceb4 28bf 7165 2cbf
00000330: dd3c 0cbf 9d88 08bf cd25 043f a1de 323f
00000340: 0d27 063f cbc3 21bf 340e 1e3f b1aa 233f
00000350: f7ba 2b3f 98ce 233f eb9b 0cbf e493 02bf
00000360: f40c f33e 8f29 28bf ef4f 33bf f3dc 03bf
00000370: ebe9 f7be 7ad8 033f 7792 24bf c448 f63e
00000380: 1353 0fbf 0e81 0b3f 57c2 0ebf e303 0ebf
00000390: e1a6 00bf 94eb 273f 556f 07bf 41bb fd3e
000003a0: ce46 1e3f 7a0d 31bf e21b 333f b668 37bf
000003b0: de08 133f e6db d8be d227 273f f750 253f
000003c0: 7084 f83e 95cd 06bf a1c2 27bf 2513 1abf
000003d0: c4e7 febe a859 10bf 5e1b 2b3f 7199 01bf
000003e0: ae4d 1abf 3035 2bbf 32f3 373f ab95 02bf
000003f0: ac5a 223f a085 2f3f 4130 063f 1fcc 2f3f
0.6879702 0.69703156 0.5114446 -0.5146881 -0.48317033 0.55405957 -0.5514681 -0.5926937
-0.7178372 -0.6956897 0.5620688 0.78723365 0.70215917 0.621696 -0.686176 -0.6598042
-0.68773985 0.6754797 -0.68925023 -0.4675284 -0.5180193 -0.6543893 0.4522581 0.5459851
-0.56039846 0.51250696 0.5998378 0.5231146 0.5936295 -0.6040499 0.6474272 -0.54732484
0.68947744 -0.70523834 0.6909214 0.63411826 0.50272435 -0.48691782 0.69257075 -0.4868847
-0.66771257 0.51680726 -0.5553067 0.76502556 -0.6265329 0.41461366 -0.5539435 -0.6512104
-0.6698113 0.56324685 0.732217 0.63679755 0.5314136 0.60787517 -0.6491726 0.49208918
0.67006207 0.57490325 -0.59297496 0.6358602 -0.7131446 -0.4650731 -0.7059522 -0.5867483
-0.78043103 0.51764977 -0.66732174 0.7277032 0.79718596 -0.7822893 0.7846928 0.7267869
-0.6566366 0.6808404 0.789883 0.86296684 -0.7096675 0.74772733 0.36645243 0.34477475
0.39469406 0.74988127 -0.5751345 0.730428 -0.37413567 -0.68080485 -0.46081004 0.42218682
0.5281488 -0.6741508 -0.82122695 0.5246854 0.8043916 0.6438109 -0.3994258 0.3409428
-0.44918376 -0.8867671 -0.43392757 0.49540415 -0.8034722 0.5350261 -0.69957495 0.6459944
0.4757864 -0.7538952 0.7500717 0.830614 0.6387843 -0.4550632 0.36107248 -0.8203502
-0.4837103 -0.8494299 0.4265429 -0.6322346 -0.49368396 -0.3777086 0.8662605 -0.34506512
0.43168756 -0.76554316 0.8002692 0.57808214 -0.59580994 0.42812052 0.59986484 0.75258607
0.51488435 0.669064 0.7095543 -0.6490155 -0.61009973 0.5811375 -0.5254751 -0.53295624
-0.4935984 -0.63237923 0.71863776 0.5107988 0.61921906 0.48275098 -0.5524313 -0.61144227
-0.72656494 0.49737802 -0.612122 -0.71267486 -0.602119 -0.6886833 0.70747143 0.48977986
-0.45525834 0.6744633 0.5511858 0.48531747 0.7103584 -0.72348064 0.7070358 -0.4843432
0.6301219 -0.63953704 0.554463 0.5942537 0.61696666 -0.6408646 0.6469545 -0.7052596
-0.58178335 0.5403654 -0.5892297 0.46555686 -0.6980401 0.56219864 -0.5387129 -0.47381932
-0.6089386 0.7513169 0.60527587 0.70827496 0.5604829 0.50707227 -0.6063586 0.5977207
0.56990725 0.6903134 -0.5311992 0.54340863 -0.5622434 -0.48635706 -0.5454101 -0.57899123
-0.6620301 -0.5702461 -0.6514373 0.68433803 0.65406597 -0.6375693 0.47344124 0.62858695
0.6130266 0.6954008 -0.65900886 -0.6734229 -0.5478037 -0.53333455 0.5162018 0.69870955
0.52403337 -0.6318938 0.6174042 0.6393233 0.6708216 0.6398711 -0.5492541 -0.51006913
0.4747082 -0.65688413 -0.70043844 -0.51509017 -0.48420653 0.5150219 -0.6428599 0.4810239
-0.55986136 0.54493797 -0.5576529 -0.5547468 -0.50254637 0.6559384 -0.52904254 0.49556926
0.6182679 -0.6916119 0.6996442 -0.7164415 0.57435405 -0.4235527 0.65295136 0.6457667
0.48538542 -0.52657443 -0.65531355 -0.6018546 -0.49786198 -0.56386805 0.66838634 -0.5062476
-0.6027478 -0.6687803 0.7185546 -0.51009625 0.63419604 0.6856327 0.5241738 0.6867084

rnn.bias_ih_l1 f4 [64]
00000000: 33f7 05bf 05ba 6a3e 6c6d 2abf 761b 0a3f
00000010: ae9e 153f 0d86 27bf 821e 233f bbc9 1c3f
00000020: 7f53 16bf fd43 1d3f df66 d73d 0a41 243f
00000030: 0d3d 1bbf f724 143f 2c76 fa3e 9dbb 1d3f
00000040: 1014 163f 2cd1 293f 3064 11bf b476 043f
00000050: 26f4 28bf ce20 f8be 7373 febe 02e6 213f
00000060: 529f 0f3f 40f3 11bf e679 eabe 6693 2b3f
00000070: ae5d 143f 13da fd3e 5f96 20bf b66a 2a3f
00000080: c45e 3bbf a03a f8be 8d7a 35bf 5379 3f3f
00000090: 750c 05bf 5015 f93e 0a96 2ebf bb7a f33e
000000a0: 2d77 163f 3ed3 2abf 5419 0c3f 35b7 123f
000000b0: 1bf9 3abf 8bb9 09bf a09a 223f 4f5f 14bf
000000c0: a3af 2cbf 1dd8 f3be 7454 123f 095a 0ebf
000000d0: 24ec e6be d57f 04bf 9b39 1b3f 13be 31bf
000000e0: 939f 113f e937 15bf 11fb 1b3f 8ca7 453f
000000f0: 7c08 3abf 736b 2b3f 6a13 1b3f 4ba3 053f
-0.5233032 0.22922523 -0.66573215 0.5394815 0.5844525 -0.6543892 0.63718426 0.61245316
-0.58721155 0.61431867 0.10517668 0.6416174 -0.6064003 0.57868904 0.48918283 0.616144
0.5862436 0.66334796 -0.567935 0.51743627 -0.6599754 -0.48462528 -0.49697456 0.6324159
0.5610248 -0.57011795 -0.45796126 0.6702179 0.57955444 0.4958044 -0.6272945 0.6656908
-0.73191476 -0.48482227 -0.7089012 0.747945 -0.5197213 0.48649073 -0.6819769 0.47554573
0.587756 -0.6672858 0.5472615 0.573108 -0.73036355 -0.5379874 0.6351719 -0.5795793
-0.674555 -0.4762582 0.57160115 -0.5560613 -0.45102036 -0.51757556 0.60634774 -0.69430655
0.56884116 -0.5828844 0.6092997 0.7720878 -0.72669196 0.6696083 0.605765 0.5220229

rnn.bias_hh_l1 f4 [64]
00000000: b9b3 10bf e138 a33e c452 11bf 8e36 233f
00000010: 242a 1a3f 896a 15bf c962 f83e e26c 1e3f
00000020: 15dd 07bf efc6 123f 2672 d43d b3bd 083f
00000030: 2d49 12bf 0d1e 013f bb94 ed3e 1bd6 1a3f
00000040: 040c 1d3f e34f 0d3f 1c5d 2dbf b680 253f
00000050: 5a9a 0ebf c0f6 15bf 0534 36bf 1bbd 353f
00000060: 1a39 2f3f e9e7 14bf 0a3d 29bf 7fb3 2c3f
00000070: 70ae 2a3f 8b94 0f3f 3e4b 10bf cbe3 2b3f
00000080: 3b30 15bf 8c2b 00bf b393 2dbf 14aa 043f
00000090: 3ec7 18bf e500 273f 36ba 1abf 4f7c 1f3f
000000a0: 668e 233f 6ec7 10bf 844f 123f 1fcc 0b3f
000000b0: 178f 27bf 16a2 28bf 100d 043f 19c4 02bf
000000c0: 7745 1dbf ba04 18bf 0a49 0e3f ed49 f2be
000000d0: 7a5e dbbe 04f6 10bf e16b 093f c031 33bf
000000e0: acb9 193f 9a57 1ebf b3f1 003f e31f 503f
000000f0: 510b 16bf b186 313f 2502 3a3f 3121 223f
-0.56524235 0.31879333 -0.56766915 0.6375512 0.6022055 -0.58365685 0.48512867 0.6188489
-0.5307172 0.573348 0.103733346 0.5341446 -0.5714291 0.5043648 0.46402535 0.6048295
0.6134646 0.5520002 -0.677202 0.6464952 -0.5570427 -0.58579636 -0.71173126 0.7099168
0.68446505 -0.58166367 -0.66108763 0.6746139 0.6667242 0.56086034 -0.5636481 0.6714446
-0.5827672 -0.5006645 -0.67803496 0.5182202 -0.5967902 0.6523574 -0.60440385 0.62299055
0.6388916 -0.56554306 0.5715258 0.5460834 -0.6545271 -0.65872324 0.5158243 -0.5108047
-0.6143412 -0.5938221 0.555802 -0.47322026 -0.42845517 -0.5662539 0.53680235 -0.6999779
0.6004894 -0.6185242 0.50368804 0.81298655 -0.5861102 0.6934615 0.7265952 0.63331896

norm.weight f4 [64]
00000000: 16a5 f33f 5172 b83f 56ce f23f d0dc bf3f
00000010: c8f9 d23f 53a5 f03e 97df c33f 0aa7 d33f
00000020: 3a5e 853f 17ed 0240 cd0f a53e 2f1a 1a3f
00000030: d4aa d63e 2f6a d13f e2f4 bf3f acc3 9b3e
00000040: f12b d23f afc0 9d3e 19bd d83e 6358 d93f
00000050: efc9 0540 f008 fe3e 8d35 0340 4293 f73f
00000060: 9a71 bd3f 5508 a93f cee6 a53f 112e e43f
00000070: 9ffc a03f 5d75 cc3f ba66 dd3f a9a6 a23f
00000080: 69a1 c63f 1013 ea3e c31e af3f 42c8 fb3f
00000090: d097 ec3f 4435 bd3f 82df ed3f d9c1 993e
000000a0: c0bd ee3d 970d 0240 5dc1 ea3f f1c4 d63f
000000b0: d5ab a33f ee8f e43e cce4 823e 0eef ec3f
000000c0: fdd3 c03d a8a4 f63e d862 c23e c18d b83f
000000d0: aac7 3940 9ef3 d63f d067 d33f 8fa3 9a3f
000000e0: 50d7 bc3e 43f0 e33f dec6 a63e f94e 173f
000000f0: 988e d73f 5710 ce3f 71c1 d73f d16b c33f
1.9034755 1.4409887 1.8969219 1.4989262 1.6482477 0.47001132 1.5302609 1.6535351
1.0419381 2.0457208 0.32238618 0.60196203 0.41927207 1.636053 1.4996607 0.30422723
1.641966 0.30811068 0.4233177 1.6980098 2.09045 0.49616194 2.0501435 1.9341815
1.4800293 1.3205668 1.2961061 1.7826558 1.2577094 1.5973316 1.7296975 1.2707111
1.5518008 0.4571767 1.3681263 1.9670489 1.848383 1.478188 1.8583834 0.30030707
0.11657286 2.0320795 1.834026 1.6778852 1.2786814 0.4464106 0.25565183 1.8510454
0.094154336 0.48172498 0.37966037 1.441826 2.9028115 1.6793096 1.6516056 1.2081164
0.3688302 1.7807697 0.325736 0.5910488 1.6840391 1.6098737 1.6855909 1.5267278

norm.bias f4 [64]
00000000: 94b1 12bf ed90 ff3e c623 293e de65 0f3f
00000010: 5c80 273f 7848 1fbf b0ae 1c3f a1e9 6f3f
00000020: ada5 3dbf ac3f 84be bcb0 dabe 028c 1dbf
00000030: 7405 1ebf 6cfa 243f 14c1 fe3e 62eb a1be
00000040: de03 183f 0d0e d7be 112f 20bf 2a45 163f
00000050: e4d7 083f 4713 41bf 3306 69bf 48a4 bbbd
00000060: 3bd2 013f 6b57 1f3f f10c 0dbe 2842 05be
00000070: 1452 06bf b77c f53e b673 8a3e 4fe0 fabe
00000080: 034a 0fbf cd73 28bf 7c92 3fbf f1e2 233e
00000090: 3415 bfbe dde4 043f a165 0bbe eed8 53be
000000a0: ce39 4cbf de95 c0bd ba96 3e3e 2b7c 933d
000000b0: 32ff 01bf 7260 15bf d0eb 20bf 4b2b 0c3f
000000c0: 1bb3 32bf 24ab 2cbf e981 20bf 6c59 00be
000000d0: aa99 573b a65a 283f d797 213f 25bb 3a3f
000000e0: c424 d6be a86c 1b3f c1c2 e6be 5fb4 2cbf
000000f0: d155 4cbf 0820 243f 880c 273f 90d1 2c3f
-0.5730221 0.49915257 0.16517553 0.5601481 0.65430236 -0.62219954 0.6120405 0.93715864
-0.74080926 -0.25829828 -0.42712963 -0.6154176 -0.6172707 0.64444613 0.49756682 -0.31624895
0.593809 -0.42002907 -0.6257182 0.58699286 0.5345442 -0.7542004 -0.91025084 -0.091621935
0.5071141 0.62242764 -0.13774468 -0.13013518 -0.5246899 0.47946712 0.27041405 -0.4899926
-0.5597231 -0.658017 -0.7483289 0.1600454 -0.37320864 0.5191172 -0.13612987 -0.20688221
-0.797757 -0.09403585 0.18612185 0.072014175 -0.5078002 -0.5835029 -0.6285982 0.5475356
-0.69804543 -0.6744864 -0.6269823 -0.12534112 0.0032897987 0.6576332 0.63122314 0.7294181
-0.41824925 0.6071267 -0.4507046 -0.67462724 -0.79818445 0.64111376 0.65253496 0.67507267
